Project/Assets/ML-Agents/Examples/3DBall/TFModels/3DBall2.onnx (onnx, 73994 bytes, 9 tensors)

50 f4 [8]
0	0x3d3c4808	0.04596713
1	0x3d4c4717	0.049872484
2	0x3f08b1db	0.53396386
3	0x3e293e61	0.16527702
4	0x3f075031	0.5285674
5	0x3edecb40	0.43514442
6	0x3f0f2eb2	0.55930626
7	0x3eed5716	0.46355504

action_model._continuous_distribution.log_sigma f4 [1, 2]
0	0xbe46cd2c	-0.19414204
1	0xbe1aecd1	-0.15129401

action_model._continuous_distribution.mu.bias f4 [2]
0	0xbc880fae	-0.01660904
1	0x3b4c6bcf	0.0031192189

action_model._continuous_distribution.mu.weight f4 [2, 128]
0	0x3b41e2bd	0.002958461
1	0x3ccf0443	0.025270587
2	0x3d0f217f	0.034944054
3	0xbdbc23e3	-0.09186532
4	0x3daa453f	0.08313989
5	0xbd0642c6	-0.032778524
6	0xbd25a40f	-0.04043966
7	0x3d760d87	0.060071494
8	0xbc1ada95	-0.009451528
9	0x3bf5b826	0.007498759
10	0xbd3dad00	-0.046307564
11	0xbd68c022	-0.056823857
12	0x3da17d15	0.07885186
13	0xbc9e061c	-0.019290023
14	0xbc99e266	-0.018784713
15	0x3be113f2	0.0068688327
16	0xb968c972	-0.00022200288
17	0xbd6575c3	-0.05602051
18	0x3c40f74b	0.011777709
19	0x3cd3825b	0.025818994
20	0xbd177675	-0.036978204
21	0x3d453afb	0.04815195
22	0x3be6c2d0	0.0070422664
23	0x3c07df56	0.0082929935
24	0xbc114b4b	-0.008868049
25	0x3bedcf67	0.0072573903
26	0x3cfae789	0.030627983
27	0x3c4ca8ab	0.012491385
28	0xbba58663	-0.0050514205
29	0x3d1654a6	0.03670182
30	0x3d03342b	0.032032173
31	0x3c557345	0.013027971
32	0x3b19a168	0.0023442153
33	0x3b8853cc	0.00416038
34	0x3ce976fe	0.028499123
35	0x3d9506f8	0.0727672
36	0x3b56d235	0.0032779102
37	0xbb190cc9	-0.0023353568
38	0xbd3332d5	-0.04374965
39	0x3c6ffb5d	0.014647332
40	0x3b49746a	0.0030739554
41	0xbd361086	-0.04444935
42	0xbc8e68ac	-0.017383896
43	0x3ad961a9	0.0016584891
44	0xbd249554	-0.040181473
45	0xbcf5217d	-0.029923195
46	0xbb4fbf73	-0.0031699806
47	0x3c769a21	0.015051396
48	0x3cc5184b	0.024059435
49	0xbc589287	-0.013218529
50	0xbb57b137	-0.0032912025
51	0xbb68a3e1	-0.003549807
52	0x3d67ef4a	0.05662469
53	0x3a0e29e3	0.0005423112
54	0x3d951edc	0.072812766
55	0x3b45b094	0.0030165063
56	0xbcc1d7f1	-0.02366254
57	0xbdb40734	-0.087904364
58	0x3d25858f	0.040410575
59	0xbc99052b	-0.018679222
60	0x3658c016	3.2298317e-06
61	0x3be2ee12	0.006925353
62	0xbc94bdb0	-0.018156856
63	0x3d080654	0.03320916
64	0x3e018a02	0.12650302
65	0x3db541bf	0.08850431
66	0x39a6910f	0.00031770064
67	0x3d1789a1	0.036996488
68	0x3c3d5c14	0.011557598
69	0xbc087281	-0.008328081
70	0xbc328e99	-0.010898256
71	0x3b8207fd	0.0039682374
72	0xbbacd63e	-0.005274563
73	0x3d13f91a	0.036126234
74	0xbb14fd9a	-0.0022734166
75	0x3c8d58c0	0.017254233
76	0xbc6ab6cc	-0.014325809
77	0xbc29ccb7	-0.010363749
78	0x3cfbafd0	0.030723482
79	0x3d83c4a5	0.06433991
80	0xbd2830fe	-0.041062348
81	0xbd0dc74f	-0.034613904
82	0xbb82749f	-0.0039811875
83	0x3c247fa7	0.0100402
84	0x3bf6e176	0.0075342013
85	0x3d78eff1	0.0607757
86	0xbc25f0a3	-0.010128173
87	0xbcf8aba5	-0.030355284
88	0xbc74eead	-0.014949483
89	0x3c58660d	0.013207925
90	0x3b18d6fd	0.0023321502
91	0xbb05a498	-0.0020392295
92	0x3c8bd65a	0.017069984
93	0xbd64f8f5	-0.055901486
94	0x3c7c64c4	0.015404884
95	0x3ccd552e	0.02506503
96	0xbb5b474a	-0.003345924
97	0x3d1e7f3d	0.038695563
98	0xbd1574c4	-0.03648831
99	0xbc8391e2	-0.016060773
100	0xbd01e47f	-0.03171205
101	0x3c587d73	0.013213503
102	0x3d48e345	0.049044866
103	0x3ddb27f2	0.10700978
104	0xbd478f04	-0.048720375
105	0x3cab8dc2	0.020941619
106	0x3d5143c3	0.051090013
107	0xbc89d79d	-0.016826445
108	0x3c200d36	0.009768775
109	0xbcbe809b	-0.023254683
110	0xbcb4d486	-0.022073995
111	0xbd368be1	-0.044566993
112	0x3b36522d	0.0027819977
113	0x3bdc4de3	0.006723152
114	0x3a8a5ddc	0.0010556537
115	0xbd329aa7	-0.04360452
116	0xbc25a306	-0.010109669
117	0xbc40e2a7	-0.011772788
118	0x3dc6d99b	0.09709474
119	0xbbf7dbf0	-0.0075640604
120	0xbdb32d1d	-0.08748839
121	0xbcaffe03	-0.021483427
122	0x3b37eaf5	0.002806363
123	0x3cd76826	0.026294779
124	0x3c78dccc	0.015189361
125	0x3a961de3	0.0011452999
126	0xbc22d298	-0.009937905
127	0x3d94ba76	0.07262127
128	0x3d61faed	0.055170942
129	0x3ce1677c	0.027515166
130	0xbcfaf0b3	-0.030632352
131	0xbbd3f869	-0.006468822
132	0x3d728c18	0.059215635
133	0x3b610281	0.0034333768
134	0xbcb42376	-0.021989565
135	0x3cbe9215	0.023263017
136	0xbbac0e6f	-0.005250744
137	0x395cfbde	0.00021074663
138	0xbc114320	-0.0088661015
139	0xbdf2ec00	-0.1186142
140	0x3be43cab	0.00696524
141	0xbc863998	-0.016384885
142	0xbb4a9e40	-0.0030917078
143	0x3bcb5812	0.006205567
144	0xbb338309	-0.0027391335
145	0xbe01c62a	-0.1267325
146	0x3c37aa81	0.011210085
147	0xbd8ceeae	-0.06881462
148	0x3bbe2804	0.00580311
149	0xbb8ab53f	-0.004233032
150	0x3ce9668f	0.028491287
151	0x3b468ca1	0.0030296224
152	0xbc46c8d5	-0.012132843
153	0x3c4a3b1e	0.012343196
154	0x3bf80f30	0.00757017
155	0x3d9284fb	0.0715427
156	0x3da3a881	0.07991124
157	0x3d996980	0.07490826
158	0xbb87aa75	-0.004140193
159	0xbcb0b4a5	-0.021570513
160	0x3d6df5c5	0.058095712
161	0xbb53d090	-0.0032320358
162	0x3c9a23b1	0.018815847
163	0xbcd9b082	-0.026573423
164	0xbc6dd7b3	-0.014516759
165	0x3a9fa542	0.0012179988
166	0xbc6735b2	-0.014111923
167	0x3b1dd1a7	0.0024081261
168	0x3d376faf	0.044784244
169	0xbd41d585	-0.04732277
170	0xbc4a874e	-0.012361361
171	0x3bc4c05e	0.0060043773
172	0x3d0bab84	0.034099117
173	0xbc98e6c4	-0.018664725
174	0x3b21d9e3	0.002469652
175	0x3c539a15	0.012915154
176	0x3cbd3dce	0.02310076
177	0x3da566bd	0.080762364
178	0xbcd229ed	-0.025654757
179	0x3a34f0f5	0.00069023605
180	0x3c8a72f4	0.016900517
181	0xbd63792d	-0.055535484
182	0x3b9e230d	0.0048259557
183	0x39a93303	0.000322722
184	0xbd2ddeb1	-0.042448703
185	0x3d0590f0	0.032608926
186	0x3dc2a471	0.09504021
187	0x3d608dd3	0.054822754
188	0xbb16ede7	-0.0023029984
189	0x3c4540c9	0.012039372
190	0xbc4a4900	-0.012346506
191	0xbd6399e1	-0.055566672
192	0x3c954b0b	0.01822426
193	0xbd592251	-0.053011242
194	0x3c40c0f5	0.011764755
195	0xbcb87178	-0.022515044
196	0xbd927416	-0.07151048
197	0x3cacc8eb	0.021091899
198	0x3d731971	0.059350435
199	0x3d88159f	0.06644749
200	0xbba0795e	-0.0048972806
201	0x3cc9d9b7	0.024639947
202	0x3b53af73	0.003230062
203	0x3d62477c	0.055243954
204	0x3d49d9eb	0.04928009
205	0x3bcc75e7	0.006239641
206	0xbd1bdb55	-0.03805097
207	0xbada088c	-0.0016634627
208	0xbb273a72	-0.0025517014
209	0x3c920457	0.017824335
210	0xbb840e2b	-0.0040300093
211	0xbb052b34	-0.002031994
212	0xbcc99ea4	-0.024611779
213	0x3ce5a0ec	0.028030835
214	0x3a075dd2	0.00051638216
215	0xbd8d3b50	-0.068960786
216	0xbcf79dd7	-0.030226631
217	0xbcc43d02	-0.023954872
218	0x3bb9edeb	0.005674114
219	0x3d63cd85	0.05561592
220	0x3d69011c	0.056885824
221	0xbd40f207	-0.047105815
222	0x3bfa9a0a	0.0076477574
223	0xb8d4aa1d	-0.00010140634
224	0x3c3690bd	0.011142907
225	0x3d8586c7	0.06519847
226	0xbdbcc71e	-0.09217666
227	0xbb7c1f8d	-0.0038470954
228	0xbc170e11	-0.009219662
229	0x3b82c11a	0.0039903047
230	0x3cde86b4	0.02716384
231	0xbbbbbc8a	-0.0057292627
232	0x3d4b32aa	0.049608864
233	0x3d6352bd	0.055498827
234	0xbc8a95e1	-0.016917171
235	0x3d75f0b4	0.060044006
236	0x3bc3c235	0.005974079
237	0x3d988023	0.07446315
238	0x3d8efcb1	0.06981791
239	0x3aacbec4	0.0013179411
240	0x3c3588e3	0.01108
241	0x3c30119b	0.010746385
242	0xba7ad4d4	-0.0009568457
243	0x3dbc76e6	0.092023656
244	0xbc34a687	-0.011026031
245	0x3c937fd1	0.018005284
246	0x3ca3de09	0.020003336
247	0xbac044c1	-0.0014668928
248	0xbd9859c7	-0.07438999
249	0xbbd5d89f	-0.0065260674
250	0x3c5c3f40	0.013442814
251	0x3ce74c5f	0.028234659
252	0x3d574ae4	0.052561656
253	0x3ccee8a3	0.025257414
254	0x3a775d10	0.00094361696
255	0xbcb62e4c	-0.022238873

network_body._body_endoder.seq_layers.0.bias f4 [128]
0	0xbd994b88	-0.074851096
1	0xbd371924	-0.04470171
2	0xbd7f10c9	-0.062271867
3	0xbc0ced83	-0.008601549
4	0xbd43d6a9	-0.047812138
5	0xbcd1ff43	-0.025634414
6	0xbcd501f5	-0.02600191
7	0x3cce81e8	0.025208429
8	0x3c624246	0.013809746
9	0xbd448fea	-0.04798881
10	0xbd590f4b	-0.0529931
11	0x3b63a109	0.0034733436
12	0xbd05cf92	-0.032668658
13	0x3ce98d5a	0.028509784
14	0x3cdf77d0	0.02727881
15	0xbc731e97	-0.014838836
16	0xbcb8914f	-0.022530226
17	0x3d0acbc4	0.033885732
18	0xbced1f13	-0.028945481
19	0x3bb0692d	0.0053836317
20	0xbd483234	-0.048876002
21	0xbd087a57	-0.033319797
22	0xbcd3b8a5	-0.025844881
23	0x3cc249b0	0.023716778
24	0xbc5661ae	-0.013084812
25	0x3cd00199	0.025391387
26	0x3cc5b109	0.024132269
27	0xbc4d5e09	-0.012534627
28	0xbda9bfb9	-0.08288521
29	0xbd4a9311	-0.04945666
30	0xbdc0d800	-0.09416199
31	0xbd5163d7	-0.051120605
32	0x3c58d6a0	0.013234764
33	0x3d99aa94	0.07503238
34	0x3c0f2567	0.008736945
35	0x3bb81878	0.0056181513
36	0xbd07bdc7	-0.03313997
37	0x3a3d6b92	0.0007225807
38	0xbc69d711	-0.014272467
39	0xbc94bdcb	-0.018156907
40	0xbbc6bae4	-0.0060647596
41	0xbcf877a9	-0.030330496
42	0xbbc8af49	-0.0061244112
43	0xbd4c536f	-0.049884256
44	0xbce8c085	-0.028412113
45	0xbdc14365	-0.094366826
46	0x3c184299	0.009293222
47	0xbd0f1057	-0.034927692
48	0x3cc5638f	0.024095325
49	0xbd38ff20	-0.04516518
50	0xbb9dba74	-0.0048134867
51	0xbc08d927	-0.008352554
52	0xbcd4ab3d	-0.025960559
53	0xbd5104b3	-0.051029872
54	0xbcc26818	-0.023731276
55	0xbd72e8dd	-0.059304107
56	0xbd8c237f	-0.06842708
57	0x3cbce626	0.023058962
58	0x3d346692	0.04404313
59	0xbc80d6cd	-0.015727425
60	0xbd453b2a	-0.048152126
61	0xbc896b41	-0.016774775
62	0xbd7c5998	-0.06160888
63	0xbb048786	-0.002022238
64	0x3cd40b54	0.025884308
65	0xbcdd9bf8	-0.02705191
66	0xbab904eb	-0.0014115846
67	0xbd8d2430	-0.06891668
68	0xbc1f6ae2	-0.009730073
69	0xbd478f37	-0.048720565
70	0xbcdaac1a	-0.026693393
71	0x3cd15310	0.025552303
72	0xbd27a51d	-0.04092895
73	0xbc4530e2	-0.01203558
74	0x3cb1496b	0.021641454
75	0xbd869350	-0.065710664
76	0x3c544d22	0.012957843
77	0xbdc9b07a	-0.09848113
78	0x3c10ee88	0.008845933
79	0x3cae1be3	0.021253532
80	0xbdcdf778	-0.100569665
81	0x3c77ca25	0.015123879
82	0x3c3304f5	0.010926475
83	0x3b9d9f3e	0.004810243
84	0xbd693780	-0.056937695
85	0xbd8dcde5	-0.06924037
86	0xbd149518	-0.036275
87	0xbd183f99	-0.037170026
88	0x3c6098af	0.013708278
89	0xbd358865	-0.04431953
90	0xbbf1d978	-0.0073806606
91	0x3d0c6eeb	0.034285467
92	0x3d1d8027	0.038452294
93	0xbd139193	-0.036027502
94	0x3ab2318e	0.0013595091
95	0xbbdc552d	-0.006724021
96	0x3d14bce4	0.036312953
97	0x3bef5bb2	0.007304632
98	0xbb3715ff	-0.0027936695
99	0xba9b25d2	-0.0011836833
100	0xbca6b6dc	-0.020350866
101	0xbcd839ce	-0.02639475
102	0xbc09b24a	-0.008404324
103	0xbd935004	-0.07192996
104	0xbd3b4daa	-0.045728363
105	0xbcca4003	-0.024688726
106	0xbcba737e	-0.02276015
107	0x3c3a623b	0.011375959
108	0x3c7723fe	0.015084265
109	0xbc21fcf4	-0.009886969
110	0x3cd045e6	0.025423955
111	0x3cf26773	0.029590344
112	0x3ba1448b	0.004921501
113	0xbc393450	-0.011303976
114	0xbcab15b4	-0.020884372
115	0x3be892fb	0.0070975996
116	0x3bc7ae5e	0.0060937842
117	0x3ce8dfac	0.028426968
118	0xbcec459c	-0.028841786
119	0xbd9caa89	-0.076497145
120	0x3d439f1b	0.047759157
121	0xbd6bfe61	-0.05761564
122	0xbd4a346d	-0.049366403
123	0xbd0d454a	-0.034489907
124	0x3c29f427	0.010373152
125	0xbcf0997d	-0.029370064
126	0xbcb9726b	-0.022637567
127	0x3d0dbe83	0.034605514

network_body._body_endoder.seq_layers.0.weight f4 [128, 8]
0	0xbdced093	-0.10098376
1	0xbde37039	-0.11105389
2	0xbe0708d1	-0.13186957
3	0x3f300751	0.68761164
4	0xbe83d74d	-0.257502
5	0x3e12f88a	0.14352623
6	0xb9946fef	-0.00028312157
7	0xbd352e76	-0.04423376
8	0xbe91dc81	-0.28488544
9	0xbe76f989	-0.24118628
10	0xbe0823ea	-0.1329495
11	0x3eceee88	0.4041636
12	0x3d25e1e7	0.04049864
13	0xbe2a6169	-0.16638722
14	0xbda51158	-0.08059949
15	0x3ed0f311	0.40810445
16	0xbe8acdba	-0.27110082
17	0xba2eb557	-0.0006664595
18	0x3e854120	0.2602625
19	0xbe9e89ab	-0.30964407
20	0xbe6ee79e	-0.23330542
21	0xbe1f04ff	-0.1552925
22	0xbe56b24d	-0.20966454
23	0x3e952d40	0.29136086
24	0xbe94b8ea	-0.29047328
25	0x3f855ea6	1.041951
26	0xbf00af7c	-0.5026777
27	0x3f2f5de2	0.6850263
28	0x3ed4c15e	0.41553777
29	0xbed94bdb	-0.42440686
30	0x3db79f21	0.08965898
31	0xbe72ae42	-0.23699287
32	0x3e8a5638	0.27018905
33	0xbbced471	-0.006311946
34	0x3e3e5be0	0.18589735
35	0xbe4b2b0e	-0.19840643
36	0x3e976005	0.29565445
37	0x3ef13897	0.47113487
38	0xbe2ca9a3	-0.16861586
39	0x3e954991	0.2915769
40	0xbdff2820	-0.12458825
41	0xbe289588	-0.16463292
42	0xbe503bb1	-0.2033527
43	0xbdb9ee5c	-0.090786666
44	0xbf3bac34	-0.73309636
45	0xbe2e3e5c	-0.17015976
46	0xbdb8101a	-0.08987446
47	0x3ec07500	0.37589264
48	0xbdb4e28d	-0.08832274
49	0x3eabfa8d	0.33589593
50	0x3e7d7c39	0.24754418
51	0x3ec5bb3f	0.3861942
52	0x3e995dd0	0.29954386
53	0x3eb4e18f	0.35328338
54	0xbe1da97e	-0.15396687
55	0x3e6bcc90	0.23027253
56	0x3f2b22b8	0.6684985
57	0xbf209c7b	-0.6273877
58	0xbe45678a	-0.19277778
59	0x3e978d2e	0.295999
60	0xbf1f6ae3	-0.6227247
61	0x3ee3ca04	0.44490063
62	0x3f307212	0.6892406
63	0x3d179dfc	0.0370159
64	0xbe527f79	-0.2055644
65	0x3e9a5c44	0.30148518
66	0x3e4f9c83	0.20274548
67	0xbd1f7035	-0.03892537
68	0xbedd80c1	-0.43262294
69	0xbe0e06aa	-0.1386973
70	0x3f549242	0.8303567
71	0x3bd86ace	0.006604529
72	0xbe0ce45c	-0.13758987
73	0xbe8282c2	-0.25490385
74	0x3e4462fc	0.19178385
75	0x3e6cf713	0.23141126
76	0xbf63ad9d	-0.8893679
77	0x3e2fccb5	0.17167933
78	0x3df0e31b	0.11762067
79	0xbe25168a	-0.16121879
80	0x3ca9bf4b	0.020721098
81	0xbd3a7d46	-0.045529626
82	0xbe7525c1	-0.23940183
83	0xbcb58802	-0.02215958
84	0xbe0586af	-0.13039659
85	0xbe850457	-0.25979874
86	0xbf0f5f0e	-0.56004417
87	0x3e59a418	0.21254003
88	0xbe96cfee	-0.29455513
89	0x3e29f4a3	0.16597228
90	0x3d56c12d	0.05243032
91	0x3c89da5c	0.016827755
92	0x3efe6fe3	0.49694738
93	0x3c3076dd	0.010770527
94	0xbe42b7ee	-0.19015476
95	0x3d23365b	0.03984676
96	0x3d1cdd65	0.038297076
97	0xbe3d98c7	-0.18515311
98	0x3d99d692	0.07511629
99	0xbecb3d67	-0.39695284
100	0xbf770c53	-0.9650318
101	0xbf3ac9d1	-0.729642
102	0xbe2b9c27	-0.16758786
103	0xbf60dec7	-0.8783993
104	0x3f0ed72b	0.5579707
105	0x3e04f1af	0.1298282
106	0x3e0b9d1b	0.1363415
107	0x3e2585d3	0.16164331
108	0x3f6a4d56	0.91524255
109	0x3bc157e9	0.0059003723
110	0x3ef60d5c	0.48057067
111	0x3ed7d2f5	0.42153135
112	0x3eea4a48	0.45759797
113	0x3e151feb	0.14562957
114	0xbe413127	-0.18866406
115	0x3e26ac46	0.16276655
116	0x3e48956e	0.19588253
117	0xbf0b1c49	-0.54340035
118	0xbe248483	-0.16066174
119	0x3f4363fe	0.7632445
120	0xbed5c305	-0.4175035
121	0x3ec69b62	0.38790423
122	0xbd76adc4	-0.06022431
123	0x3eec29dd	0.4612569
124	0xbe2f6f14	-0.17132217
125	0x3efeaf90	0.4974332
126	0xbe445bb5	-0.19175608
127	0x3e802e01	0.25035098
128	0x3d03b0a6	0.032150887
129	0x3e9fc328	0.3120358
130	0xbee3ae41	-0.44468883
131	0x3d70e07b	0.05880783
132	0x3e3d92a3	0.18512969
133	0x3debe761	0.115187414
134	0x3db40b57	0.087912254
135	0xbf05159e	-0.5198611
136	0xbdc98429	-0.09839661
137	0x3e81066e	0.25200218
138	0xbef4e4de	-0.47830862
139	0xbe386875	-0.18008597
140	0x3db308f4	0.08741942
141	0xbe5be134	-0.21472627
142	0xbe5781c7	-0.210456
143	0xbec5a3a7	-0.3860142
144	0x3e55ab9c	0.20866245
145	0xbebb529a	-0.36586457
146	0xbe3761c5	-0.1790839
147	0xbeaebb6a	-0.3412736
148	0xbd88a9be	-0.06673001
149	0x3f13eddf	0.5778484
150	0x3dc265f4	0.09492102
151	0xbdef454d	-0.1168314
152	0xbf63cf91	-0.88988596
153	0x3d09df0b	0.033659976
154	0x3f799ddf	0.9750652
155	0x3ed0a9b3	0.4075447
156	0xbf7284cc	-0.9473388
157	0xbd2b4134	-0.04181023
158	0x3cd4f1d5	0.02599422
159	0xbf1624c3	-0.58649844
160	0xbe58b9e5	-0.21164663
161	0x3d8c7434	0.068581015
162	0x3e2bfc6e	0.16795513
163	0xbe0a9fe8	-0.13537562
164	0x3ee04c41	0.43808177
165	0xbf42a90e	-0.76039207
166	0xbf43f000	-0.76538086
167	0xbe812105	-0.25220504
168	0xbeb22b68	-0.3479874
169	0x3eddd65d	0.4332761
170	0x3eefa436	0.4680497
171	0x3e1e2c6d	0.15446635
172	0x3e1a029c	0.15040058
173	0xbe4ef1d7	-0.20209442
174	0x3d2b765a	0.041860916
175	0x3e816729	0.25274017
176	0x3db87b5d	0.09007905
177	0xbe662478	-0.22474849
178	0xbeabdd2b	-0.33567175
179	0x3eb574a1	0.35440543
180	0xbef76cab	-0.48325095
181	0xbe4cdcfe	-0.20006177
182	0xbdc929b6	-0.09822409
183	0xbc04ccdf	-0.008105486
184	0x3e297ba8	0.16551077
185	0xbe51b6da	-0.20479909
186	0xbde6ad24	-0.11263493
187	0x3e8b8e2b	0.27256903
188	0x3e9bfaeb	0.30464873
189	0x3eabf98c	0.33588827
190	0xbda273b8	-0.07932228
191	0xbe06bd20	-0.13158083
192	0x3d4acd62	0.049512275
193	0xbee298ff	-0.44257352
194	0x3e121276	0.14264855
195	0x3e9e91c3	0.30970582
196	0x3e16905c	0.14703506
197	0x3e89eb56	0.2693736
198	0xbe348327	-0.17628156
199	0x3e58fdd8	0.21190584
200	0x3de7e43a	0.11322828
201	0xbed59989	-0.417187
202	0x3ebd34f6	0.36954468
203	0xbc8b6c6d	-0.017019475
204	0x3f25a792	0.64708817
205	0xbeefaff2	-0.46813923
206	0x3f4be559	0.7964683
207	0x3e9c2bf5	0.30502287
208	0x3ee9c97d	0.45661536
209	0xbd8908e5	-0.066911496
210	0xbd2e949a	-0.042622186
211	0x3ec439d3	0.38325366
212	0xbace2480	-0.001572743
213	0xbf175ddb	-0.5912759
214	0x3e076670	0.1322267
215	0xbf0889ea	-0.5333544
216	0x3eb1228e	0.34596676
217	0x3e82d8c9	0.2555602
218	0xbeec0de9	-0.46104363
219	0xbe6624f5	-0.22475035
220	0x3f2bf824	0.6717551
221	0x3e509c5c	0.20372146
222	0xbdb97040	-0.09054613
223	0xbe02d40c	-0.12776202
224	0xbdecdbd4	-0.115653664
225	0xbd226aa1	-0.03965247
226	0x3d208746	0.039191507
227	0xbe8718db	-0.2638615
228	0xbf091a6f	-0.5355596
229	0x3f34bf2c	0.70604205
230	0x3e64f423	0.22358756
231	0x3e95984f	0.29217765
232	0x3e4d2d7c	0.20036882
233	0x3ecee9c5	0.40412727
234	0xbed2eaac	-0.41194665
235	0xbea07dec	-0.3134607
236	0x3e947020	0.28991795
237	0x3e119289	0.14216055
238	0x3ee7bc3e	0.45260805
239	0xbee1001f	-0.43945405
240	0xbf1615a5	-0.58626777
241	0x3d62ac9c	0.055340394
242	0xbe7be777	-0.24600016
243	0xbe26cf98	-0.16290128
244	0xbe590df2	-0.21196726
245	0xbea1dfc7	-0.3161604
246	0x3f0363bc	0.5132406
247	0x3d335089	0.043777976
248	0x3ce77265	0.02825279
249	0x3ddaf5e3	0.106914304
250	0x3eabcc54	0.33554327
251	0x3c42d629	0.01189188
252	0xbebfeb59	-0.37484244
253	0x3d92adbd	0.07162044
254	0x3ee8c21e	0.454606
255	0x3eed55b0	0.46354437

network_body._body_endoder.seq_layers.2.bias f4 [128]
0	0x3cc29689	0.023753421
1	0xbd24680e	-0.040138297
2	0xbc845f0c	-0.016158603
3	0x3d4fa494	0.050694063
4	0x3ba56a5e	0.0050480803
5	0xbce944e0	-0.028475225
6	0x3c4ea67f	0.012612938
7	0x3c582a2a	0.013193646
8	0x3c8dcd2c	0.017309748
9	0xbcae56e1	-0.021281661
10	0x3cf5eff3	0.030021643
11	0x3d7b5ef3	0.061369848
12	0x3bf5bff2	0.0074996883
13	0x3cd887c5	0.026431927
14	0xbbe83a87	-0.007087055
15	0xbd220e14	-0.039564207
16	0xbd0019cf	-0.031274613
17	0x3d91c04f	0.07116758
18	0xbc98e6a7	-0.018664671
19	0xbc9ee440	-0.019395947
20	0x3cf1c514	0.02951292
21	0xbc7c44bb	-0.015397246
22	0xbd2b4bd5	-0.041820366
23	0xbcf80dac	-0.030279957
24	0xbb112e0e	-0.0022152695
25	0xbc11bc46	-0.008894986
26	0x3c2add29	0.010428705
27	0x3c44a356	0.012001833
28	0x3d1a53e5	0.037677664
29	0x3c96ab2e	0.018392172
30	0xbd00cfa4	-0.03144802
31	0xbcfe4001	-0.031036379
32	0x3cb27fce	0.021789458
33	0x3d0347ee	0.03205102
34	0xbc75bfce	-0.014999343
35	0x3d02f6ae	0.031973533
36	0x3cad0ceb	0.021124324
37	0xbc75fb91	-0.015013591
38	0x3d0b848b	0.03406195
39	0xbcc6b067	-0.024254037
40	0xbd1fd635	-0.039022643
41	0x3c780fdc	0.0151405
42	0x3bd67e1d	0.0065457956
43	0xbd4f596f	-0.0506224
44	0x3bdc1648	0.0067165233
45	0x3d1a2e02	0.037641533
46	0xbd23f9d6	-0.040033184
47	0xbd05ef90	-0.032699168
48	0xbd08dd52	-0.033414192
49	0x3d7f6e41	0.062361006
50	0x3b9ed5a2	0.0048472444
51	0xbd858ffd	-0.06521604
52	0x3c88e343	0.01670993
53	0xbbaff2e1	-0.0053695296
54	0xbc12edaa	-0.008967796
55	0xbc012464	-0.007882211
56	0x3bf0bd3c	0.0073467772
57	0x3dad2279	0.08453841
58	0x3d389763	0.04506625
59	0x3c44e467	0.012017346
60	0xbcb6b589	-0.02230336
61	0xbd142577	-0.03616854
62	0x3cedc342	0.02902377
63	0xba21e905	-0.0006176385
64	0x3c5454da	0.012959683
65	0x3c9d345b	0.019190004
66	0xbd485144	-0.048905626
67	0xbc2f4b36	-0.010699084
68	0x3c6e60b8	0.014549427
69	0x3be46303	0.006969811
70	0x3cae2bf3	0.021261191
71	0x3cc9a109	0.02461292
72	0x3c23c177	0.009994856
73	0xbbd455f6	-0.006479974
74	0xbd15b49e	-0.036549203
75	0x3d092caf	0.03348988
76	0x3d068d47	0.032849576
77	0xbda1a0e1	-0.07892013
78	0xbb535037	-0.0032243857
79	0xbb8e3be8	-0.0043406375
80	0x3c2f130c	0.0106856935
81	0x3c998ab9	0.018742906
82	0xbd1f0b11	-0.038828913
83	0xbcb8017e	-0.022461649
84	0xbb996289	-0.0046809358
85	0x3c4fcf79	0.012683743
86	0x3c807e68	0.015685275
87	0x3c8dd94a	0.017315526
88	0x3ca40801	0.020023348
89	0xbb89a1da	-0.0042002024
90	0xbd326692	-0.04355485
91	0xb90dc46d	-0.00013519982
92	0x3c34cf39	0.011035734
93	0x3cc6a11f	0.02424675
94	0xbd072e82	-0.033003338
95	0xbce32da6	-0.027731728
96	0xbd0090b5	-0.031388003
97	0x3d01f03c	0.031723246
98	0x3cd71ce1	0.026258888
99	0x3cb2bb0d	0.021817708
100	0x3c78938e	0.0151718985
101	0x3c9762c1	0.018479707
102	0xbc814df1	-0.015784236
103	0xbb5f2f2e	-0.003405522
104	0x3cd376e9	0.025813537
105	0x3ca1cb55	0.019750277
106	0xbc127f17	-0.008941433
107	0x3bc47580	0.0059954524
108	0xbc0eafba	-0.008708889
109	0x3cc868b4	0.024463989
110	0x3c8ea0e2	0.0174107
111	0x3c9e3e22	0.019316737
112	0xbb8cb0c0	-0.004293531
113	0x3b0e6e87	0.002173336
114	0xbd5431b7	-0.051805224
115	0x3d179720	0.03700936
116	0xbd10732c	-0.035266086
117	0xbd831cfd	-0.064020135
118	0x3cb3c51f	0.02194458
119	0xbd170595	-0.036870558
120	0x3d885374	0.066565424
121	0x3c9cde27	0.0191489
122	0xbd249091	-0.04017693
123	0x3a1aed01	0.000590995
124	0xbba6fdc4	-0.005096169
125	0xbc5f89c9	-0.01364369
126	0xbaa39acd	-0.0012482047
127	0x3c23d71a	0.010000015

network_body._body_endoder.seq_layers.2.weight f4 [128, 128]
0	0x3b3a0aa5	0.0028387692
1	0x3e46b1cf	0.19403766
2	0x3ced53ea	0.028970677
3	0xbd95e0f6	-0.073182985
4	0xbd90b368	-0.07065469
5	0x3d2e4448	0.042545587
6	0xbe38d9c9	-0.18051828
7	0x3d8b9f04	0.06817439
8	0x3d7155e5	0.058919806
9	0xbdcc793b	-0.099840604
10	0xbbe2109b	-0.006898952
11	0x3d448d3b	0.04798625
12	0x3e4169aa	0.18887964
13	0xbde3dec8	-0.111264765
14	0x3d4a1fb9	0.04934666
15	0xbc5aa6b9	-0.013345414
16	0xbc056d4e	-0.008143736
17	0x3dc29374	0.09500781
18	0x3c7b66f6	0.015344372
19	0x3b474bc2	0.0030410145
20	0xbd5cfe42	-0.053953417
21	0xbcbff628	-0.023432806
22	0xbb2efa9f	-0.0026699675
23	0x3defe031	0.11712683
24	0xbd76a0ee	-0.06021207
25	0x3ce39be5	0.027784297
26	0xbd2dd389	-0.042438064
27	0xbdcdcdbf	-0.100490086
28	0xbcbde167	-0.02317877
29	0xbdcf7a19	-0.1013071
30	0x3d80d7da	0.062911704
31	0xbd0d0b3d	-0.034434546
32	0x3e32ba15	0.17453797
33	0xbdee1082	-0.11624242
34	0xbd64c239	-0.055849288
35	0x3de99766	0.1140583
36	0xbe740d48	-0.23833191
37	0xbd60c7b6	-0.05487796
38	0x3d95ce56	0.07314746
39	0xbd97c5ae	-0.07410751
40	0xbdae4d26	-0.08510809
41	0x3dd4a66d	0.10383306
42	0x3ccdbe0f	0.025115041
43	0x3b5e00a5	0.0033874896
44	0x3cbc5fac	0.022994839
45	0x3d02554d	0.03181963
46	0xbd6879e2	-0.05675686
47	0xbdc42704	-0.09577754
48	0x3c169541	0.009190858
49	0xbdb044dc	-0.08606884
50	0x3bbfea91	0.00585682
51	0x3dbc701d	0.092010714
52	0x3da7089f	0.08155941
53	0xbd29b076	-0.041428052
54	0xbd1c0f37	-0.038100448
55	0x3df582e5	0.11987857
56	0x3cc12e7d	0.023581738
57	0x3d7fef7a	0.062484242
58	0x3c2b1b22	0.010443481
59	0xbc99fadb	-0.018796375
60	0xbd03e01e	-0.032196157
61	0x3d05e811	0.03269202
62	0xbdc1f0c6	-0.09469752
63	0x3df77d11	0.120844014
64	0x3dc2ba8c	0.09508237
65	0x3c406046	0.011741703
66	0x3e01cdc3	0.12676148
67	0xbdd06d0f	-0.10177051
68	0x3e2b438f	0.1672499
69	0x3d878015	0.066162266
70	0x3cd6a19b	0.026200106
71	0xbdd99bf2	-0.10625447
72	0xbd3b6429	-0.045749817
73	0x3d871254	0.06595293
74	0xbe08c8cb	-0.13357846
75	0x3d98cf87	0.07461458
76	0x3bbb1f90	0.0057105497
77	0x3b9e1e17	0.0048253643
78	0xbde72755	-0.11286799
79	0x3cea7950	0.0286223
80	0x3ca4539e	0.020059403
81	0xbda5d18a	-0.08096607
82	0xbd31fd1c	-0.043454275
83	0xbc66fa8e	-0.014097823
84	0xbd3fe9f7	-0.046853986
85	0x3e2d2867	0.16909944
86	0x3e00e9aa	0.12589136
87	0x3e097839	0.13424768
88	0xbe84f4c5	-0.25967994
89	0xbe22d060	-0.15899801
90	0x3e11bd6f	0.1423242
91	0x3dc21590	0.09476769
92	0x3d11317f	0.035447594
93	0xbd77c689	-0.060492072
94	0xbe1c22de	-0.15247676
95	0x3d078075	0.03308149
96	0x3e3fda14	0.18735534
97	0xbde49294	-0.1116077
98	0x3c6835eb	0.014173011
99	0xbd4f0b69	-0.05054799
100	0xbe28ab6a	-0.1647164
101	0xbd84b709	-0.06480224
102	0xbd2d9ad5	-0.042383987
103	0xbdaf7f95	-0.08569256
104	0xbe2e94a0	-0.17048883
105	0x3e021e79	0.12706937
106	0x3d857726	0.065168664
107	0x3d877a07	0.06615072
108	0x3cb0dad5	0.021588722
109	0xbe4c269f	-0.19936608
110	0xbea2b51e	-0.31778806
111	0x3dd3c9e6	0.103412434
112	0x3b83ab5a	0.0040182294
113	0x3cb7db26	0.022443365
114	0x3d03e3a3	0.032199513
115	0xbe2be646	-0.16787061
116	0xbcbef3ef	-0.023309676
117	0xbdf2eafb	-0.11861225
118	0xbd07e7dd	-0.033180106
119	0x3c0c1c0d	0.00855161
120	0xbdbf3ac3	-0.0933738
121	0x3c72a1a3	0.014809045
122	0x3cac8aad	0.02106222
123	0xbe20a098	-0.15686262
124	0x39ddf5ac	0.00042335445
125	0xbdd7559a	-0.10514374
126	0xbda88bc2	-0.08229782
127	0x3d8ccf9b	0.06875535
128	0x3d103212	0.035204
129	0x3d65cea4	0.05610527
130	0x3e26d555	0.16292317
131	0x3d00cd0f	0.03144556
132	0x3e0ed5b1	0.13948704
133	0xbd52fdb6	-0.05151149
134	0xbd767ccd	-0.060177613
135	0x3ca20a77	0.01978038
136	0xbdd38515	-0.10328118
137	0x3cb34eef	0.021888224
138	0xbc338a86	-0.0109583195
139	0x3e1acec3	0.15117936
140	0xbdb1d5e7	-0.08683377
141	0xbe68a139	-0.22717752
142	0x3c1ebca5	0.009688531
143	0xbdd72c93	-0.10506549
144	0xbd8fbbdd	-0.07018254
145	0xbdf91177	-0.12161534
146	0xbdd95db8	-0.106135786
147	0xbd86c807	-0.06581121
148	0xbd38069e	-0.044928186
149	0x3dfb0152	0.12256111
150	0x3def17ab	0.11674436
151	0x3ad769da	0.0016434744
152	0x3d8b24c3	0.06794121
153	0xbe3a6bd3	-0.18205194
154	0xbd8e3bfc	-0.06945035
155	0x3dc1c0b3	0.094605826
156	0x3c8fc366	0.017549228
157	0xbd5fcbad	-0.0546376
158	0x3c5ca8cb	0.013467978
159	0xbe1a299e	-0.15054938
160	0xbd96cc5c	-0.07363197
161	0x3d18602c	0.03720109
162	0xbd9b926f	-0.07596289
163	0xbda77ec7	-0.08178478
164	0x3d8dca45	0.069233455
165	0x3dcb774c	0.099348634
166	0xbdb86625	-0.090038575
167	0x3dc7d0e6	0.09756641
168	0xbd48425f	-0.04889142
169	0xbe814f3f	-0.25255772
170	0x3e128a4d	0.1431057
171	0x3e029495	0.12751992
172	0xbd171b67	-0.036891367
173	0x3be71dc8	0.0070531107
174	0x39e4482a	0.00043541315
175	0x3dafe725	0.08589009
176	0xbc570d29	-0.013125696
177	0xbe004764	-0.12527233
178	0xbcffabda	-0.031209875
179	0xbdc447f5	-0.09584037
180	0x3ce1ef2c	0.027579866
181	0x3ca4803e	0.020080682
182	0xbd9f1675	-0.07767955
183	0x3dd23a2d	0.102650024
184	0xbd38eb7a	-0.045146443
185	0xbcc08a2a	-0.023503382
186	0xbeaa4499	-0.3325546
187	0x3d0da23b	0.034578543
188	0x3b7a7497	0.0038216466
189	0x3c41f518	0.01183822
190	0xbd96a8da	-0.07356425
191	0x3d35f1b0	0.044419944
192	0x3d17def1	0.037077848
193	0xbd25fff0	-0.040527284
194	0x3dbb1428	0.09134704
195	0x3ce85d1d	0.028364712
196	0x3dc91b0c	0.09819612
197	0x3e124b66	0.14286575
198	0x3d599e42	0.053129442
199	0x3da3c9c0	0.07997465
200	0x3d84f540	0.0649209
201	0x3e0d8978	0.13821971
202	0xbe4f54cc	-0.20247191
203	0xbca76565	-0.02043409
204	0xbd26bf5b	-0.040709835
205	0x3e3da0b8	0.1851834
206	0xbc27eed2	-0.01024981
207	0xbcd98e55	-0.026557127
208	0x3dd366d6	0.10322349
209	0x3dc60853	0.096695565
210	0x3ce3a368	0.02778788
211	0xbc850aa9	-0.016240435
212	0x3dd3a115	0.10333458
213	0xbd9672a4	-0.07346085
214	0xbdca83c5	-0.09888414
215	0x3e4bb04d	0.19891472
216	0xbe64b7bc	-0.22335714
217	0xbc692d51	-0.014231996
218	0xbe2dd429	-0.16975464
219	0x3c8b6db2	0.01702008
220	0x3d2ba3ad	0.04190414
221	0xbc59c4f0	-0.013291582
222	0x3dcff928	0.10154945
223	0xbbb51230	-0.0055258498
224	0xbd2b1107	-0.041764285
225	0xbcd0ecc0	-0.025503516
226	0x3d1292a4	0.03578438
227	0xbd459c5e	-0.048244826
228	0xbdfc211f	-0.12311005
229	0x3c3ec4d5	0.011643608
230	0x3c966d73	0.018362736
231	0xbda133a1	-0.078711756
232	0x3c929a52	0.017895851
233	0xbb1d39a8	-0.0023990665
234	0x3d8d8fc9	0.069121905
235	0xbd6fe890	-0.0585714
236	0x3dffe683	0.124951385
237	0x3cc675b0	0.02422604
238	0xbdeaa315	-0.11456887
239	0x3c7c47c6	0.0153979715
240	0xbcd00728	-0.025394037
241	0x3ddb71ae	0.10715042
242	0x3de501b1	0.11181963
243	0xbde5dcec	-0.11223778
244	0xbdec5e18	-0.115413845
245	0x3cca39c4	0.024685748
246	0x3d7d60a4	0.06185974
247	0x3df74a58	0.12074727
248	0xbea0beab	-0.31395468
249	0x3dcb48fb	0.09926029
250	0x3d4ba095	0.04971369
251	0xbd474124	-0.048646107
252	0x3ce77249	0.028252738
253	0xbd4f48bb	-0.05060647
254	0x3c3c4b2d	0.011492533
255	0xbc14be17	-0.009078524

network_body.observation_encoder.processors.0.normalizer.running_mean f4 [8]
0	0x3ab9165e	0.0014121046
1	0x3a2046af	0.00061140483
2	0x3db1f7a3	0.08689811
3	0x4043d140	3.0596466
4	0xbe36afa5	-0.1784044
5	0xbbf8dc8e	-0.0075946515
6	0xbe6ef305	-0.23334892
7	0xbc728dd6	-0.014804324
